…
sign 55, accuracy 1.000000 (67 / 67)
sign 56, accuracy 0.968750 (62 / 64)
sign 57, accuracy 1.000000 (39 / 39)
sign 58, accuracy 1.000000 (75 / 75)
sign 59, accuracy 1.000000 (58 / 58)
sign 60, accuracy 0.000000 (0 / 53)
sign 61, accuracy 0.000000 (0 / 21)
sign 62, accuracy 0.942857 (33 / 35)
sign 63, accuracy 0.000000 (0 / 33)
sign 64, accuracy 1.000000 (46 / 46)
sign 65, accuracy 1.000000 (38 / 38)
sign 66, accuracy 1.000000 (69 / 69)
sign 67, accuracy 1.000000 (65 / 65)
sign 68, accuracy 0.961538 (50 / 52)
overall accuracy: 0.89024
loss: 3.361489
Epoch: 700
CNN(
  (conv1): Sequential(
    (0): Conv1d(14, 64, kernel_size=(3,), stride=(1,), padding=(1,))
    (1): BatchNorm1d(64, eps=1e-05, momentum=0.1, affine=True, track_running_stats=True)
    (2): LeakyReLU(negative_slope=0.01)
    (3): Conv1d(64, 64, kernel_size=(3,), stride=(1,), padding=(1,))
    (4): BatchNorm1d(64, eps=1e-05, momentum=0.1, affine=True, track_running_stats=True)
    (5): MaxPool1d(kernel_size=4, stride=3, padding=0, dilation=1, ceil_mode=False)
  )
  (conv2): Sequential(
    (0): LeakyReLU(negative_slope=0.01)
    (1): Conv1d(64, 64, kernel_size=(3,), stride=(1,), padding=(1,))
    (2): BatchNorm1d(64, eps=1e-05, momentum=0.1, affine=True, track_running_stats=True)
    (3): LeakyReLU(negative_slope=0.01)
    (4): Conv1d(64, 64, kernel_size=(3,), stride=(1,), padding=(1,))
    (5): BatchNorm1d(64, eps=1e-05, momentum=0.1, affine=True, track_running_stats=True)
    (6): MaxPool1d(kernel_size=3, stride=2, padding=0, dilation=1, ceil_mode=False)
  )
  (conv3): Sequential(
    (0): LeakyReLU(negative_slope=0.01)
    (1): Conv1d(64, 128, kernel_size=(3,), stride=(1,), padding=(1,))
    (2): BatchNorm1d(128, eps=1e-05, momentum=0.1, affine=True, track_running_stats=True)
    (3): LeakyReLU(negative_slope=0.01)
    (4): Conv1d(128, 128, kernel_size=(3,), stride=(1,), padding=(1,))
    (5): BatchNorm1d(128, eps=1e-05, momentum=0.1, affine=True, track_running_stats=True)
    (6): MaxPool1d(kernel_size=2, stride=1, padding=0, dilation=1, ceil_mode=False)
  )
  (out1): Sequential(
    (0): LeakyReLU(negative_slope=0.01)
    (1): Dropout(p=0.5)
    (2): Linear(in_features=1152, out_features=512, bias=True)
    (3): LeakyReLU(negative_slope=0.01)
    (4): Dropout(p=0.5)
    (5): Linear(in_features=512, out_features=256, bias=True)
    (6): Tanh()
    (7): Dropout(p=0.5)
    (8): Linear(in_features=256, out_features=69, bias=True)
    (9): Softmax()
  )
)