…
sign 59, accuracy 1.000000 (37 / 37)
sign 60, accuracy 1.000000 (46 / 46)
sign 61, accuracy 1.000000 (12 / 12)
sign 62, accuracy 1.000000 (21 / 21)
sign 63, accuracy 0.941176 (16 / 17)
sign 64, accuracy 1.000000 (20 / 20)
sign 65, accuracy 1.000000 (25 / 25)
sign 66, accuracy 0.981481 (53 / 54)
sign 67, accuracy 1.000000 (28 / 28)
sign 68, accuracy 1.000000 (24 / 24)
overall accuracy: 0.98954
loss: 0.012765
Epoch: 130
CNN(
  (convs): VGGNet(
    (blocks): Sequential(
      (0): VGGBlock(
        (block): Sequential(
          (0): Sequential(
            (0): LeakyReLU(negative_slope=0.01)
            (1): Conv1d(14, 64, kernel_size=(3,), stride=(1,), padding=(1,))
            (2): BatchNorm1d(64, eps=1e-05, momentum=0.1, affine=True, track_running_stats=True)
          )
          (1): Sequential(
            (0): LeakyReLU(negative_slope=0.01)
            (1): Conv1d(64, 64, kernel_size=(3,), stride=(1,), padding=(1,))
            (2): BatchNorm1d(64, eps=1e-05, momentum=0.1, affine=True, track_running_stats=True)
          )
          (2): MaxPool1d(kernel_size=3, stride=2, padding=0, dilation=1, ceil_mode=False)
        )
      )
      (1): VGGBlock(
        (block): Sequential(
          (0): Sequential(
            (0): LeakyReLU(negative_slope=0.01)
            (1): Conv1d(64, 128, kernel_size=(3,), stride=(1,), padding=(1,))
            (2): BatchNorm1d(128, eps=1e-05, momentum=0.1, affine=True, track_running_stats=True)
          )
          (1): Sequential(
            (0): LeakyReLU(negative_slope=0.01)
            (1): Conv1d(128, 128, kernel_size=(3,), stride=(1,), padding=(1,))
            (2): BatchNorm1d(128, eps=1e-05, momentum=0.1, affine=True, track_running_stats=True)
          )
          (2): Sequential(
            (0): LeakyReLU(negative_slope=0.01)
            (1): Conv1d(128, 128, kernel_size=(3,), stride=(1,), padding=(1,))
            (2): BatchNorm1d(128, eps=1e-05, momentum=0.1, affine=True, track_running_stats=True)
          )
          (3): MaxPool1d(kernel_size=3, stride=2, padding=0, dilation=1, ceil_mode=False)
        )
      )
    )
    (out): AdaptiveAvgPool1d(output_size=2)
  )
  (out): Sequential(
    (0): Dropout(p=0.5)
    (1): LeakyReLU(negative_slope=0.01)
    (2): Linear(in_features=256, out_features=69, bias=True)
  )
)