…
sign 55, accuracy 0.970588 (33 / 34)
sign 56, accuracy 0.970588 (33 / 34)
sign 57, accuracy 0.000000 (0 / 20)
sign 58, accuracy 1.000000 (33 / 33)
sign 59, accuracy 1.000000 (30 / 30)
sign 60, accuracy 0.000000 (0 / 31)
sign 61, accuracy 0.000000 (0 / 10)
sign 62, accuracy 0.925926 (25 / 27)
sign 63, accuracy 1.000000 (19 / 19)
sign 64, accuracy 1.000000 (25 / 25)
sign 65, accuracy 0.947368 (18 / 19)
sign 66, accuracy 0.980392 (50 / 51)
sign 67, accuracy 0.967742 (30 / 31)
sign 68, accuracy 1.000000 (32 / 32)
overall accuracy: 0.92744
loss: 3.330039
Epoch: 700
CNN(
  (conv1): Sequential(
    (0): Conv1d(14, 32, kernel_size=(3,), stride=(1,), padding=(1,))
    (1): BatchNorm1d(32, eps=1e-05, momentum=0.1, affine=True, track_running_stats=True)
    (2): LeakyReLU(negative_slope=0.01)
    (3): Conv1d(32, 32, kernel_size=(3,), stride=(1,), padding=(1,))
    (4): BatchNorm1d(32, eps=1e-05, momentum=0.1, affine=True, track_running_stats=True)
    (5): MaxPool1d(kernel_size=3, stride=2, padding=0, dilation=1, ceil_mode=False)
  )
  (conv2): Sequential(
    (0): LeakyReLU(negative_slope=0.01)
    (1): Conv1d(32, 64, kernel_size=(3,), stride=(1,), padding=(1,))
    (2): BatchNorm1d(64, eps=1e-05, momentum=0.1, affine=True, track_running_stats=True)
    (3): LeakyReLU(negative_slope=0.01)
    (4): Conv1d(64, 64, kernel_size=(3,), stride=(1,), padding=(1,))
    (5): BatchNorm1d(64, eps=1e-05, momentum=0.1, affine=True, track_running_stats=True)
    (6): MaxPool1d(kernel_size=2, stride=2, padding=0, dilation=1, ceil_mode=False)
  )
  (conv3): Sequential(
    (0): LeakyReLU(negative_slope=0.01)
    (1): Conv1d(64, 128, kernel_size=(3,), stride=(1,), padding=(1,))
    (2): BatchNorm1d(128, eps=1e-05, momentum=0.1, affine=True, track_running_stats=True)
    (3): LeakyReLU(negative_slope=0.01)
    (4): Conv1d(128, 128, kernel_size=(3,), stride=(1,), padding=(1,))
    (5): BatchNorm1d(128, eps=1e-05, momentum=0.1, affine=True, track_running_stats=True)
    (6): LeakyReLU(negative_slope=0.01)
    (7): Conv1d(128, 128, kernel_size=(1,), stride=(1,))
    (8): BatchNorm1d(128, eps=1e-05, momentum=0.1, affine=True, track_running_stats=True)
    (9): MaxPool1d(kernel_size=2, stride=2, padding=0, dilation=1, ceil_mode=False)
  )
  (out1): Sequential(
    (0): LeakyReLU(negative_slope=0.01)
    (1): Dropout(p=0.5)
    (2): Linear(in_features=896, out_features=896, bias=True)
    (3): LeakyReLU(negative_slope=0.01)
    (4): Dropout(p=0.5)
    (5): Linear(in_features=896, out_features=256, bias=True)
    (6): Tanh()
    (7): Dropout(p=0.5)
    (8): Linear(in_features=256, out_features=69, bias=True)
    (9): Softmax()
  )
)