…
sign 59, accuracy 0.976744 (42 / 43)
sign 60, accuracy 1.000000 (56 / 56)
sign 61, accuracy 1.000000 (17 / 17)
sign 62, accuracy 1.000000 (30 / 30)
sign 63, accuracy 1.000000 (13 / 13)
sign 64, accuracy 0.966667 (29 / 30)
sign 65, accuracy 1.000000 (25 / 25)
sign 66, accuracy 0.977273 (43 / 44)
sign 67, accuracy 0.972973 (36 / 37)
sign 68, accuracy 1.000000 (19 / 19)
overall accuracy: 0.97865
loss: 0.121943
Epoch: 130
CNN(
  (convs): VGGNet(
    (blocks): Sequential(
      (0): VGGBlock(
        (block): Sequential(
          (0): Sequential(
            (0): LeakyReLU(negative_slope=0.01)
            (1): Conv1d(14, 32, kernel_size=(3,), stride=(1,), padding=(1,))
            (2): BatchNorm1d(32, eps=1e-05, momentum=0.1, affine=True, track_running_stats=True)
          )
          (1): Sequential(
            (0): LeakyReLU(negative_slope=0.01)
            (1): Conv1d(32, 32, kernel_size=(3,), stride=(1,), padding=(1,))
            (2): BatchNorm1d(32, eps=1e-05, momentum=0.1, affine=True, track_running_stats=True)
          )
          (2): MaxPool1d(kernel_size=3, stride=2, padding=0, dilation=1, ceil_mode=False)
        )
      )
      (1): VGGBlock(
        (block): Sequential(
          (0): Sequential(
            (0): LeakyReLU(negative_slope=0.01)
            (1): Conv1d(32, 64, kernel_size=(3,), stride=(1,), padding=(1,))
            (2): BatchNorm1d(64, eps=1e-05, momentum=0.1, affine=True, track_running_stats=True)
          )
          (1): Sequential(
            (0): LeakyReLU(negative_slope=0.01)
            (1): Conv1d(64, 64, kernel_size=(3,), stride=(1,), padding=(1,))
            (2): BatchNorm1d(64, eps=1e-05, momentum=0.1, affine=True, track_running_stats=True)
          )
          (2): Sequential(
            (0): LeakyReLU(negative_slope=0.01)
            (1): Conv1d(64, 64, kernel_size=(3,), stride=(1,), padding=(1,))
            (2): BatchNorm1d(64, eps=1e-05, momentum=0.1, affine=True, track_running_stats=True)
          )
          (3): MaxPool1d(kernel_size=3, stride=2, padding=0, dilation=1, ceil_mode=False)
        )
      )
    )
    (out): AdaptiveAvgPool1d(output_size=2)
  )
  (out): Sequential(
    (0): Dropout(p=0.5)
    (1): LeakyReLU(negative_slope=0.01)
    (2): Linear(in_features=128, out_features=69, bias=True)
  )
)