…
sign 55, accuracy 0.968750 (31 / 32)
sign 56, accuracy 1.000000 (32 / 32)
sign 57, accuracy 0.000000 (0 / 34)
sign 58, accuracy 1.000000 (37 / 37)
sign 59, accuracy 1.000000 (33 / 33)
sign 60, accuracy 1.000000 (45 / 45)
sign 61, accuracy 1.000000 (9 / 9)
sign 62, accuracy 1.000000 (20 / 20)
sign 63, accuracy 1.000000 (17 / 17)
sign 64, accuracy 0.965517 (28 / 29)
sign 65, accuracy 1.000000 (29 / 29)
sign 66, accuracy 1.000000 (47 / 47)
sign 67, accuracy 1.000000 (35 / 35)
sign 68, accuracy 1.000000 (23 / 23)
overall accuracy: 0.96902
loss: 3.279971
Epoch: 700
CNN(
  (conv1): Sequential(
    (0): Conv1d(14, 64, kernel_size=(3,), stride=(1,), padding=(1,))
    (1): BatchNorm1d(64, eps=1e-05, momentum=0.1, affine=True, track_running_stats=True)
    (2): LeakyReLU(negative_slope=0.01)
    (3): Conv1d(64, 64, kernel_size=(3,), stride=(1,), padding=(1,))
    (4): BatchNorm1d(64, eps=1e-05, momentum=0.1, affine=True, track_running_stats=True)
    (5): MaxPool1d(kernel_size=3, stride=2, padding=0, dilation=1, ceil_mode=False)
  )
  (conv2): Sequential(
    (0): LeakyReLU(negative_slope=0.01)
    (1): Conv1d(64, 128, kernel_size=(3,), stride=(1,), padding=(1,))
    (2): BatchNorm1d(128, eps=1e-05, momentum=0.1, affine=True, track_running_stats=True)
    (3): LeakyReLU(negative_slope=0.01)
    (4): Conv1d(128, 128, kernel_size=(3,), stride=(1,), padding=(1,))
    (5): BatchNorm1d(128, eps=1e-05, momentum=0.1, affine=True, track_running_stats=True)
    (6): Conv1d(128, 128, kernel_size=(3,), stride=(1,), padding=(1,))
    (7): BatchNorm1d(128, eps=1e-05, momentum=0.1, affine=True, track_running_stats=True)
    (8): MaxPool1d(kernel_size=2, stride=2, padding=0, dilation=1, ceil_mode=False)
  )
  (out1): Sequential(
    (0): LeakyReLU(negative_slope=0.01)
    (1): Dropout(p=0.5)
    (2): Linear(in_features=1920, out_features=512, bias=True)
    (3): Tanh()
    (4): Dropout(p=0.5)
    (5): Linear(in_features=512, out_features=512, bias=True)
    (6): Tanh()
    (7): Dropout(p=0.5)
    (8): Linear(in_features=512, out_features=69, bias=True)
    (9): Softmax()
  )
)