…
sign 55, accuracy 1.000000 (57 / 57)
sign 56, accuracy 1.000000 (54 / 54)
sign 57, accuracy 0.000000 (0 / 26)
sign 58, accuracy 1.000000 (65 / 65)
sign 59, accuracy 1.000000 (34 / 34)
sign 60, accuracy 1.000000 (38 / 38)
sign 61, accuracy 1.000000 (22 / 22)
sign 62, accuracy 1.000000 (21 / 21)
sign 63, accuracy 1.000000 (69 / 69)
sign 64, accuracy 0.857143 (6 / 7)
sign 65, accuracy 1.000000 (44 / 44)
sign 66, accuracy 1.000000 (48 / 48)
sign 67, accuracy 1.000000 (44 / 44)
sign 68, accuracy 1.000000 (47 / 47)
overall accuracy: 0.97495
loss: 3.291123
Epoch: 300
CNN(
  (conv1): Sequential(
    (0): Conv1d(14, 64, kernel_size=(3,), stride=(1,), padding=(1,))
    (1): BatchNorm1d(64, eps=1e-05, momentum=0.1, affine=True, track_running_stats=True)
    (2): LeakyReLU(negative_slope=0.01)
    (3): Conv1d(64, 64, kernel_size=(3,), stride=(1,), padding=(1,))
    (4): BatchNorm1d(64, eps=1e-05, momentum=0.1, affine=True, track_running_stats=True)
    (5): LeakyReLU(negative_slope=0.01)
    (6): MaxPool1d(kernel_size=3, stride=2, padding=0, dilation=1, ceil_mode=False)
  )
  (conv2): Sequential(
    (0): Conv1d(64, 128, kernel_size=(3,), stride=(1,), padding=(1,))
    (1): BatchNorm1d(128, eps=1e-05, momentum=0.1, affine=True, track_running_stats=True)
    (2): LeakyReLU(negative_slope=0.01)
    (3): Conv1d(128, 128, kernel_size=(3,), stride=(1,), padding=(1,))
    (4): BatchNorm1d(128, eps=1e-05, momentum=0.1, affine=True, track_running_stats=True)
    (5): LeakyReLU(negative_slope=0.01)
    (6): Conv1d(128, 128, kernel_size=(3,), stride=(1,), padding=(1,))
    (7): BatchNorm1d(128, eps=1e-05, momentum=0.1, affine=True, track_running_stats=True)
    (8): LeakyReLU(negative_slope=0.01)
    (9): MaxPool1d(kernel_size=3, stride=2, padding=0, dilation=1, ceil_mode=False)
  )
  (conv3): Sequential(
    (0): Conv1d(128, 256, kernel_size=(3,), stride=(1,), padding=(1,))
    (1): BatchNorm1d(256, eps=1e-05, momentum=0.1, affine=True, track_running_stats=True)
    (2): LeakyReLU(negative_slope=0.01)
    (3): Conv1d(256, 256, kernel_size=(3,), stride=(1,), padding=(1,))
    (4): BatchNorm1d(256, eps=1e-05, momentum=0.1, affine=True, track_running_stats=True)
    (5): LeakyReLU(negative_slope=0.01)
    (6): Conv1d(256, 256, kernel_size=(3,), stride=(1,), padding=(1,))
    (7): BatchNorm1d(256, eps=1e-05, momentum=0.1, affine=True, track_running_stats=True)
    (8): LeakyReLU(negative_slope=0.01)
    (9): MaxPool1d(kernel_size=3, stride=2, padding=0, dilation=1, ceil_mode=False)
  )
  (out1): Sequential(
    (0): LeakyReLU(negative_slope=0.01)
    (1): Dropout(p=0.5)
    (2): Linear(in_features=1920, out_features=1024, bias=True)
    (3): LeakyReLU(negative_slope=0.01)
    (4): Dropout(p=0.5)
    (5): Linear(in_features=1024, out_features=512, bias=True)
    (6): Tanh()
    (7): Dropout(p=0.5)
    (8): Linear(in_features=512, out_features=69, bias=True)
    (9): Softmax()
  )
)