…
sign 55, accuracy 0.966667 (29 / 30)
sign 56, accuracy 1.000000 (52 / 52)
sign 57, accuracy 1.000000 (22 / 22)
sign 58, accuracy 1.000000 (23 / 23)
sign 59, accuracy 1.000000 (33 / 33)
sign 60, accuracy 1.000000 (42 / 42)
sign 61, accuracy 1.000000 (21 / 21)
sign 62, accuracy 1.000000 (17 / 17)
sign 63, accuracy 1.000000 (17 / 17)
sign 64, accuracy 0.937500 (15 / 16)
sign 65, accuracy 0.964286 (27 / 28)
sign 66, accuracy 1.000000 (40 / 40)
sign 67, accuracy 1.000000 (27 / 27)
sign 68, accuracy 0.960000 (24 / 25)
overall accuracy: 0.98242
loss: 0.012981
Epoch: 130
CNN(
  (resnet): ResNet(
    (conv1): Conv1d(14, 64, kernel_size=(3,), stride=(1,), padding=(1,), bias=False)
    (bn1): BatchNorm1d(64, eps=1e-05, momentum=0.1, affine=True, track_running_stats=True)
    (relu): ReLU(inplace)
    (maxpool): MaxPool1d(kernel_size=3, stride=2, padding=1, dilation=1, ceil_mode=False)
    (blocks): Sequential(
      (0): Sequential(
        (0): BasicBlock(
          (conv1): Conv1d(64, 64, kernel_size=(3,), stride=(1,), padding=(1,), bias=False)
          (bn1): BatchNorm1d(64, eps=1e-05, momentum=0.1, affine=True, track_running_stats=True)
          (relu): ReLU(inplace)
          (conv2): Conv1d(64, 64, kernel_size=(3,), stride=(1,), padding=(1,), bias=False)
          (bn2): BatchNorm1d(64, eps=1e-05, momentum=0.1, affine=True, track_running_stats=True)
        )
        (1): BasicBlock(
          (conv1): Conv1d(64, 64, kernel_size=(3,), stride=(1,), padding=(1,), bias=False)
          (bn1): BatchNorm1d(64, eps=1e-05, momentum=0.1, affine=True, track_running_stats=True)
          (relu): ReLU(inplace)
          (conv2): Conv1d(64, 64, kernel_size=(3,), stride=(1,), padding=(1,), bias=False)
          (bn2): BatchNorm1d(64, eps=1e-05, momentum=0.1, affine=True, track_running_stats=True)
        )
      )
      (1): Sequential(
        (0): BasicBlock(
          (conv1): Conv1d(64, 128, kernel_size=(3,), stride=(1,), padding=(1,), bias=False)
          (bn1): BatchNorm1d(128, eps=1e-05, momentum=0.1, affine=True, track_running_stats=True)
          (relu): ReLU(inplace)
          (conv2): Conv1d(128, 128, kernel_size=(3,), stride=(1,), padding=(1,), bias=False)
          (bn2): BatchNorm1d(128, eps=1e-05, momentum=0.1, affine=True, track_running_stats=True)
          (downsample): Sequential(
            (0): Conv1d(64, 128, kernel_size=(1,), stride=(1,), bias=False)
            (1): BatchNorm1d(128, eps=1e-05, momentum=0.1, affine=True, track_running_stats=True)
          )
        )
        (1): BasicBlock(
          (conv1): Conv1d(128, 128, kernel_size=(3,), stride=(1,), padding=(1,), bias=False)
          (bn1): BatchNorm1d(128, eps=1e-05, momentum=0.1, affine=True, track_running_stats=True)
          (relu): ReLU(inplace)
          (conv2): Conv1d(128, 128, kernel_size=(3,), stride=(1,), padding=(1,), bias=False)
          (bn2): BatchNorm1d(128, eps=1e-05, momentum=0.1, affine=True, track_running_stats=True)
        )
      )
    )
    (avgpool): AdaptiveAvgPool1d(output_size=2)
  )
  (out): Sequential(
    (0): Dropout(p=0.5)
    (1): LeakyReLU(negative_slope=0.01)
    (2): Linear(in_features=256, out_features=69, bias=True)
  )
)