…
sign 55, accuracy 0.000000 (0 / 25)
sign 56, accuracy 1.000000 (30 / 30)
sign 57, accuracy 0.000000 (0 / 13)
sign 58, accuracy 1.000000 (38 / 38)
sign 59, accuracy 1.000000 (25 / 25)
sign 60, accuracy 1.000000 (19 / 19)
sign 61, accuracy 0.000000 (0 / 11)
sign 62, accuracy 0.950000 (19 / 20)
sign 63, accuracy 0.000000 (0 / 11)
sign 64, accuracy 0.925926 (25 / 27)
sign 65, accuracy 1.000000 (19 / 19)
sign 66, accuracy 1.000000 (46 / 46)
sign 67, accuracy 1.000000 (31 / 31)
sign 68, accuracy 1.000000 (21 / 21)
overall accuracy: 0.82533
loss: 3.439708
Epoch: 700
CNN(
  (conv1): Sequential(
    (0): Conv1d(14, 32, kernel_size=(3,), stride=(1,), padding=(1,))
    (1): BatchNorm1d(32, eps=1e-05, momentum=0.1, affine=True, track_running_stats=True)
    (2): LeakyReLU(negative_slope=0.01)
    (3): Conv1d(32, 32, kernel_size=(3,), stride=(1,), padding=(1,))
    (4): BatchNorm1d(32, eps=1e-05, momentum=0.1, affine=True, track_running_stats=True)
    (5): LeakyReLU(negative_slope=0.01)
    (6): MaxPool1d(kernel_size=3, stride=2, padding=0, dilation=1, ceil_mode=False)
  )
  (conv2): Sequential(
    (0): Conv1d(32, 64, kernel_size=(3,), stride=(1,), padding=(1,))
    (1): BatchNorm1d(64, eps=1e-05, momentum=0.1, affine=True, track_running_stats=True)
    (2): LeakyReLU(negative_slope=0.01)
    (3): Conv1d(64, 64, kernel_size=(3,), stride=(1,), padding=(1,))
    (4): BatchNorm1d(64, eps=1e-05, momentum=0.1, affine=True, track_running_stats=True)
    (5): LeakyReLU(negative_slope=0.01)
    (6): Conv1d(64, 64, kernel_size=(3,), stride=(1,), padding=(1,))
    (7): BatchNorm1d(64, eps=1e-05, momentum=0.1, affine=True, track_running_stats=True)
    (8): LeakyReLU(negative_slope=0.01)
    (9): MaxPool1d(kernel_size=3, stride=2, padding=0, dilation=1, ceil_mode=False)
  )
  (out1): Sequential(
    (0): LeakyReLU(negative_slope=0.01)
    (1): Dropout(p=0.5)
    (2): Linear(in_features=960, out_features=512, bias=True)
    (3): Tanh()
    (4): Dropout(p=0.5)
    (5): Linear(in_features=512, out_features=69, bias=True)
    (6): Softmax()
  )
)