…
sign 55, accuracy 1.000000 (12 / 12)
sign 56, accuracy 0.965517 (28 / 29)
sign 57, accuracy 1.000000 (24 / 24)
sign 58, accuracy 0.964286 (27 / 28)
sign 59, accuracy 1.000000 (31 / 31)
sign 60, accuracy 1.000000 (25 / 25)
sign 61, accuracy 1.000000 (13 / 13)
sign 62, accuracy 0.900000 (18 / 20)
sign 63, accuracy 1.000000 (6 / 6)
sign 64, accuracy 0.928571 (13 / 14)
sign 65, accuracy 1.000000 (13 / 13)
sign 66, accuracy 0.980392 (50 / 51)
sign 67, accuracy 1.000000 (25 / 25)
sign 68, accuracy 0.964286 (27 / 28)
overall accuracy: 0.97307
loss: 3.280531
Epoch: 500
CNN(
  (conv1): Sequential(
    (0): Conv1d(14, 64, kernel_size=(3,), stride=(1,), padding=(1,))
    (1): BatchNorm1d(64, eps=1e-05, momentum=0.1, affine=True, track_running_stats=True)
    (2): LeakyReLU(negative_slope=0.01)
    (3): Conv1d(64, 64, kernel_size=(3,), stride=(1,), padding=(1,))
    (4): BatchNorm1d(64, eps=1e-05, momentum=0.1, affine=True, track_running_stats=True)
    (5): LeakyReLU(negative_slope=0.01)
    (6): MaxPool1d(kernel_size=3, stride=2, padding=0, dilation=1, ceil_mode=False)
  )
  (conv2): Sequential(
    (0): Conv1d(64, 128, kernel_size=(3,), stride=(1,), padding=(1,))
    (1): BatchNorm1d(128, eps=1e-05, momentum=0.1, affine=True, track_running_stats=True)
    (2): LeakyReLU(negative_slope=0.01)
    (3): Conv1d(128, 128, kernel_size=(3,), stride=(1,), padding=(1,))
    (4): BatchNorm1d(128, eps=1e-05, momentum=0.1, affine=True, track_running_stats=True)
    (5): LeakyReLU(negative_slope=0.01)
    (6): Conv1d(128, 128, kernel_size=(3,), stride=(1,), padding=(1,))
    (7): BatchNorm1d(128, eps=1e-05, momentum=0.1, affine=True, track_running_stats=True)
    (8): LeakyReLU(negative_slope=0.01)
    (9): MaxPool1d(kernel_size=3, stride=2, padding=0, dilation=1, ceil_mode=False)
  )
  (out1): Sequential(
    (0): LeakyReLU(negative_slope=0.01)
    (1): Dropout(p=0.5)
    (2): Linear(in_features=1920, out_features=1024, bias=True)
    (3): LeakyReLU(negative_slope=0.01)
    (4): Dropout(p=0.5)
    (5): Linear(in_features=1024, out_features=512, bias=True)
    (6): Tanh()
    (7): Dropout(p=0.5)
    (8): Linear(in_features=512, out_features=69, bias=True)
    (9): Softmax()
  )
)